linear_regression_model.pth (torch, 1383 bytes, 1 tensors)

linear.weight f4 [1, 37]
000000 7b 76 bc 45 13 76 dd 45 3f f0 73 45 41 d7 24 45
       6030.81 7086.7593 3903.0154 2637.4534
000010 91 22 e2 45 e5 f6 e2 45 d1 c9 c0 45 4c e4 a7 45
       7236.321 7262.862 6169.227 5372.537
000020 53 5e b4 45 3e 6a b8 45 8f f3 23 45 44 70 d6 45
       5771.7905 5901.2803 2623.2224 6862.033
000030 6b d7 ac 45 be 2f 80 45 ce d2 d7 45 29 ac b7 44
       5530.9272 4101.968 6906.3506 1469.38
000040 c0 8f b9 45 5c e5 eb 45 bd f5 be 45 4b 35 59 45
       5937.9688 7548.67 6110.7173 3475.3308
000050 5c 92 62 45 22 e2 a3 45 b9 0c af 44 1b 14 a2 44
       3625.1475 5244.2666 1400.3976 1296.6283
000060 ca 29 12 45 ff e6 0d 45 7f 04 6b 44 a0 29 e8 45
       2338.6118 2270.4373 940.07025 7429.203
000070 8a 9f ef 45 88 f5 c9 44 da d1 ae 45 c7 22 9c 44
       7667.9424 1615.6729 5594.2314 1249.0868
000080 fa 78 a3 44 19 d8 d2 44 3e 8a db 44 bc 1d e5 44
       1307.7805 1686.753 1756.3201 1832.9292
000090 e9 fb 48 44
       803.9361
